output/vae_model_final.pth (torch, 483384 bytes, 24 tensors)

encoder.conv.0.weight f4 [64, 1, 5]
0.23332268 -0.016614454 -0.43529055 0.39487165 0.18518995 0.20548591 -0.25204116 -0.19918546
-0.14967595 0.120725274 0.345981 -0.35586485 0.14383711 -0.3219229 -0.3782444 -0.23749825
-0.37512246 -0.38686046 -0.13640156 0.27128586 0.046290267 0.029460426 0.052328244 0.1558534
0.031290352 0.009050219 -0.3771402 -0.39741012 -0.17624927 0.41133472 0.04708638 -0.10513449
0.29672477 0.15402517 -0.0594683 0.20104435 0.3553205 0.16554865 0.13607185 -0.31972536
0.2630546 -0.3661737 0.35550827 0.14014307 -0.2392986 0.31099093 0.11269084 0.108543165
-0.1480156 -0.30326492 -0.07309631 -0.31428224 -0.1531751 0.014628876 0.42747426 0.013261188
0.3407403 0.35871604 -0.34547067 -0.22182634 0.29187503 -0.41585144 -0.18337339 0.1179825
0.26910746 0.32001513 0.19496755 0.22549482 -0.1807522 -0.1433755 -0.30702963 -0.32372952
-0.37366292 -0.3611253 -0.23074242 -0.0009408352 0.4672728 -0.2253875 0.44866627 -0.34640366
-0.07944113 -0.070696205 0.011728025 -0.25790194 0.21477935 -0.17618302 -0.091465 0.19323811
-0.44146225 -0.07317026 -0.22205885 -0.027167553 0.1873152 -0.003955384 0.14580336 0.32095453
-0.011816344 -0.16297653 0.36527273 -0.16991946 -0.40319154 -0.31922054 0.38346827 0.22475824
-0.34848845 0.07215383 -0.1944005 -0.26211405 0.0850839 -0.116616815 0.23397344 -0.3440427
0.26446557 -0.1496247 -0.00073325634 0.2159944 -0.16097455 -0.39026967 -0.3518981 0.4174841
0.21118999 0.12454866 -0.41685444 -0.38904434 0.074360155 -0.00928058 0.049936883 -0.39405987
0.007087753 -0.2334905 0.010603702 0.24979468 0.05242342 -0.01663434 0.23071001 0.37001032
-0.38650432 -0.35045743 -0.21787766 -0.34184483 -0.14026369 -0.0969565 0.06746488 -0.13689646
0.25569776 -0.13001983 -0.31371623 0.08593783 0.3654474 -0.07668183 -0.35993853 0.12974523
0.07646732 -0.20611477 0.091593675 -0.07929224 0.31385192 0.19435285 -0.30318862 -0.17300493
0.22199495 -0.06874555 -0.13319974 0.3963915 -0.22512916 0.37964714 0.13873379 -0.19841276
-0.06567253 0.01297435 -0.42291287 0.10862487 -0.28311062 0.195841 0.40136868 0.012805401
0.081613265 -0.46068457 0.35111627 -0.13363367 0.28421253 -0.33822668 -0.115215085 0.00018507324
0.17194863 -0.15827823 -0.3820056 -0.33806694 -0.026511863 -0.050916206 0.11191758 -0.39538962
0.40333128 -0.21199314 -0.15202862 0.27185714 0.2433111 0.40094072 0.06062589 -0.11896918
-0.03064338 -0.116134174 -0.094794475 0.0035349405 0.30040395 -0.42031133 0.38515067 0.2060143
-0.4673982 0.29722267 -0.33593208 -0.16577405 -0.3686488 0.3598644 0.012425087 -0.15037924
0.08155561 -0.34165126 0.055017926 0.15996966 -0.38625896 -0.09051676 -0.16353315 -0.06271349
0.39286634 -0.14469483 0.28353864 0.20385706 0.40184683 -0.25122285 0.34752834 -0.28670973
-0.06596109 -0.26822546 -0.21573499 0.09262159 -0.259833 -0.08922685 -0.22893728 0.2978242
-0.36979318 -0.081461914 -0.27744547 -0.16793136 -0.22188178 -0.108709194 -0.2905054 0.36168468
-0.12663391 0.3312912 -0.076163396 0.027840884 -0.16070853 0.36520144 -0.033637732 -0.07280447
00000000: 24ec 6e3e 091b 88bc 67de debe 9e2c ca3e
00000010: 6fa2 3d3e e66a 523e 8a0b 81be 46f7 4bbe
00000020: a744 19be d03e f73d 6c24 b13e eb33 b6be
00000030: 094a 133e 14d3 a4be 40a9 c1be be32 73be
00000040: 0d10 c0be 9312 c6be daac 0bbe fbe5 8a3e
00000050: dd9a 3d3d fe56 f13c 2456 563d 0998 1f3e
00000060: 502a 003d 5f47 143c 8518 c1be 5779 cbbe
00000070: b07a 34be 779a d23e a6dd 403d c050 d7bd
00000080: 4fec 973e c6b8 1d3e 0895 73bd 92de 4d3e
00000090: 92ec b53e 9685 293e 6b56 0b3e 0bb3 a3be
000000a0: 18af 863e 1f7b bbbe 2e05 b63e aa81 0f3e
000000b0: b10a 75be 343a 9f3e 75ca e63d e14b de3d
000000c0: 6791 17be 8a45 9bbe 85b3 95bd 9ae9 a0be
000000d0: efd9 1cbe f4ad 6f3c e8dd da3e 7445 593c
000000e0: 8375 ae3e a1a9 b73e 88e1 b0be 7226 63be
000000f0: a570 953e 7bea d4be 3cc6 3bbe cfa0 f13d
00000100: 74c8 893e 06d9 a33e 93a5 473e 1de8 663e
00000110: 1b17 39be 07d1 12be fd32 9dbe e0bf a5be
00000120: bf50 bfbe 6ae5 b8be be47 6cbe 62a2 76ba
00000130: 613e ef3e fbcb 66be 96b7 e53e d25b b1be
00000140: 08b2 a2bd 2cc9 90bd e726 403c b90b 84be
00000150: 1eef 5b3e 5269 34be 0052 bbbd 36e0 453e
00000160: 5707 e2be 4ada 95bd 6563 63be 7d8e debc
00000170: 8ecf 3f3e 2a9c 81bb 7a4d 153e 2754 a43e
00000180: 5799 41bc 52e3 26be 0705 bb3e 5eff 2dbe
00000190: 1f6f cebe e070 a3be f455 c43e 0627 663e
000001a0: 146d b2be 63c5 933d ed10 47be d033 86be
000001b0: 7840 ae3d ccd4 eebd bc96 6f3e 5d26 b0be
000001c0: 0868 873e 3837 19be 0038 40ba a32d 5d3e
000001d0: 83d6 24be 6dd1 c7be fd2b b4be 7ac0 d53e
000001e0: 3042 583e 5e13 ff3d f26d d5be d230 c7be
000001f0: 234a 983d 930d 18bc 9e8a 4c3d 37c2 c9be
00000200: 6240 e83b 2218 6fbe 26bb 2d3c 2dca 7f3e
00000210: f1b9 563d bd44 88bc 3f3f 6c3e fe71 bd3e
00000220: e5e3 c5be 286f b3be 521b 5fbe 4906 afbe
00000230: 49a1 0fbe 2191 c6bd 072b 8a3d 962e 0cbe
00000240: d1ea 823e eb23 05be 6a9f a0be 2c00 b03d
00000250: ec1b bb3e 5d0b 9dbd dd49 b8be efdb 043e
00000260: e69a 9c3d c00f 53be 7795 bb3d f863 a2bd
00000270: 33b1 a03e 6f04 473e 8a3b 9bbe 3428 31be
00000280: a552 633e 78ca 8cbd 8365 08be d4f3 ca3e
00000290: 4288 66be 1c61 c23e 3b10 0e3e b72c 4bbe
000002a0: 527f 86bd 5e92 543c 0988 d8be b776 de3d
000002b0: e0f3 90be 8b8a 483e 3280 cd3e bfcd 513c
000002c0: db24 a73d d9de ebbe 83c5 b33e 44d7 08be
000002d0: 4e84 913e 0c2c adbe e3f5 ebbd 3810 4239
000002e0: 4d13 303e b013 22be 3d96 c3be 1c17 adbe
000002f0: 682f d9bc 838d 50bd 0b35 e53d 8270 cabe
00000300: 7081 ce3e bb14 59be 64ad 1bbe dc30 8b3e
00000310: 8c26 793e 1a48 cd3e da52 783d 1da6 f3bd
00000320: d307 fbbc c1d7 edbd 9b23 c2bd 76aa 673b
00000330: 8cce 993e 0c33 d7be 7832 c53e 6af5 523e
00000340: d14e efbe 922d 983e 4aff abbe acc0 29be
00000350: 89bf bcbe 2640 b83e 9892 4b3c 04fd 19be
00000360: a106 a73d eaec aebe 7a5a 613d 16cf 233e
00000370: bcc3 c5be da60 b9bd 3c75 27be ee6f 80bd
00000380: c725 c93e e22a 14be fa2b 913e e8bf 503e
00000390: debe cd3e 48a0 80be 3cef b13e 9ecb 92be
000003a0: 9c16 87bd d954 89be a2e9 5cbe 63b0 bd3d
000003b0: d508 85be 91bc b6bd 896e 6abe 6a7c 983e
000003c0: 8855 bdbe 81d5 a6bd 550d 8ebe 33f6 2bbe
000003d0: fa34 63be eda2 debd 20bd 94be bc2e b93e
000003e0: 52ac 01be 009f a93e 8efb 9bbd 9112 e43c
000003f0: c790 24be affb ba3e b8c7 09bd 831a 95bd

encoder.conv.0.bias f4 [64]
0.08949415 -0.18771306 -0.133639 -0.008247569 -0.006013467 0.06503353 -0.3055068 -0.16211046
0.17640316 -0.31419253 0.27491072 0.30849835 -0.2685122 -0.036897555 -0.27512679 -0.08105292
0.23231976 -0.30670688 0.33286363 0.22793059 -0.22481988 -0.39748618 -0.36811382 0.3423514
-0.31764686 0.4309869 -0.12971966 -0.40087748 0.024150163 -0.42835665 0.28396848 -0.30896547
0.38608375 0.15244783 -0.2811541 0.36383677 -0.361224 -0.16479523 0.3603542 -0.3999917
0.3247999 -0.42170596 -0.21213534 -0.051169686 0.109208 -0.07482323 -0.3694125 0.09106262
0.29567766 0.36179408 -0.118263766 -0.47221583 -0.0450814 -0.47666582 -0.099787466 0.3966644
0.42455298 0.22359473 0.23355485 -0.13058023 0.3728286 -0.29606807 0.35552433 -0.27531314
00000000: b548 b73d da37 40be a9d8 08be d020 07bc
00000010: 9e0c c5bb 4d30 853d 636b 9cbe 4900 26be
00000020: 08a3 343e d8dd a0be 19c1 8c3e 7ff3 9d3e
00000030: 6e7a 89be e421 17bd 6bdd 8cbe 13ff a5bd
00000040: 3be5 6d3e af08 9dbe 1a6d aa3e a366 693e
00000050: 2f37 66be 4f83 cbbe 6a79 bcbe af48 af3e
00000060: 9ca2 a2be 51aa dc3e 3bd5 04be d03f cdbe
00000070: 90d6 c53c 9051 dbbe 5164 913e b930 9ebe
00000080: c5ac c53e 491b 1c3e 6ef3 8fbe d048 ba3e
00000090: 5af2 b8be 15c0 28be 5880 b83e b6cb ccbe
000000a0: 2c4c a63e d8e9 d7be 023a 59be 4e97 51bd
000000b0: 72a8 df3d ec3c 99bd a323 bdbe 0a7f ba3d
000000c0: 1063 973e 133d b93e 4634 f2bd 46c6 f1be
000000d0: 46a7 38bd 8b0d f4be 5f5d ccbd 9917 cb3e
000000e0: 025f d93e 04f6 643e 0129 6f3e d3b6 05be
000000f0: 64e3 be3e 3c96 97be 4907 b63e d8f5 8cbe

encoder.conv.2.weight f4 [64, 64, 3]
-0.014013341 0.021219587 -0.016021352 -0.035908833 0.012759096 -0.0969052 -0.024042645 -0.060938284
0.019182976 -0.020647926 -0.021806965 0.026570283 0.0102619575 -0.023977239 -0.028185923 -0.003957676
0.036216114 -0.07039171 -0.090068445 -0.0036907638 -0.08235102 -0.030526303 -0.069627255 -0.0151593285
0.026968848 0.0020168466 -0.037056826 -0.07759339 0.028753534 -0.0866931 0.04392212 0.030581431
-0.05710212 0.014948169 -0.09820215 -0.03963751 -0.04288346 0.033112984 0.025009247 -0.054034382
-0.063411936 0.026718194 -0.05402891 -0.07239502 -0.032910693 -0.07933758 -0.062903546 0.0004957423
-0.01615926 0.02656276 0.010557631 -0.048783373 -0.08803996 -0.08988717 -0.0064167483 -0.07557501
0.024235053 -0.09304301 -0.07017651 0.032432407 -0.009258134 -0.039088257 -0.02070433 0.015938291
-0.011438323 -0.07877042 -0.063285396 0.005947426 0.03414397 -0.009363082 -0.0759671 -0.09360668
-0.0851952 0.022241281 -0.025686996 0.043143306 -0.05433438 0.0061376058 -0.05901053 -0.08907001
-0.031785425 -0.0010488455 -0.048757244 -0.06995821 0.037753485 -0.01923612 -0.07080293 -0.010733789
-0.022558406 0.0045949565 0.028586727 -0.021084856 -0.03950252 0.006314045 -0.1025134 -0.03369583
0.017414756 -0.074877255 -0.081228554 0.016420264 -0.056478284 -0.0761466 -0.06964839 -0.06272599
0.013710364 0.026245106 -0.029725168 -0.08054879 -0.007652086 -0.050164156 0.0036238667 0.0199267
0.04087992 -0.07495867 -0.095235 -0.0893876 0.03722299 0.017749868 0.01476631 0.0074686487
-0.07612102 -0.061009496 -0.08711805 -0.019294647 -0.00032741425 -0.021163989 -0.076185316 -0.06738546
-0.027856193 0.015743518 0.017957835 -0.08607282 -0.06454176 -0.04478167 -0.09849749 -0.081920266
-0.06740373 0.0023354036 -0.021755945 -0.024697721 0.026878294 -0.050307143 -0.08071707 0.03408526
0.014490511 -0.026006425 0.04433097 -0.07772184 0.028101612 0.04338188 0.010351466 0.027346376
-0.024125729 -0.008930377 -0.101425 -0.07099758 0.012670096 -0.04529745 -0.08900313 -0.08062821
-0.012831948 -0.06592112 0.024337199 -0.059210435 -0.05345406 -0.02349506 -0.022797283 0.03589707
0.010224965 -0.06420223 -0.02375195 -0.020567214 -0.08085861 0.01446784 -0.009930334 0.028369078
0.02620344 0.01757711 -0.0073429733 0.026389217 -0.076361865 -0.09254504 -0.042596318 0.041375447
-0.03430209 -0.058062788 0.030851588 0.03866791 -0.040376503 -0.018551039 -0.07182598 -0.04481986
0.009533162 0.028219022 0.009844581 -0.11138241 0.025446123 -0.039595794 -0.03187772 -0.041582577
-0.055634186 0.006094532 -0.025929993 0.0039141965 0.037794963 0.027553793 -0.00082930387 -0.030593116
0.026210872 0.0037182532 -0.011569552 -0.03137168 0.036804236 0.009629225 -0.065850005 -0.06281826
-0.106621474 -0.018630419 -0.0062854663 -0.033917755 0.021902751 0.050640482 -0.0045605036 0.017675703
-0.108801134 -0.09759437 -0.021680024 0.014736228 -0.038910363 0.06438333 0.02852643 -0.07869784
-0.08777094 0.022662431 -0.062004756 -0.04270793 -0.028426632 0.010349302 0.012449465 -0.0820157
-0.10534339 -0.08155352 0.015016944 -0.038187444 -0.029596481 -0.038170047 0.030592091 -0.036874756
-0.030935481 -0.01211469 -0.020102037 -0.002170938 -0.082569435 -0.1036282 0.0017217608 -0.05962737
00000000: 3698 65bc b3d4 ad3c 363f 83bc 2415 13bd
00000010: 870b 513c 3c76 c6bd 15f5 c4bc 6c9a 79bd
00000020: 9e25 9d3c d725 a9bc 85a4 b2bc eca9 d93c
00000030: c521 283c ea6b c4bc 2ae6 e6bc 64af 81bb
00000040: 5957 143d 8729 90bd ce75 b8bd bee0 71bb
00000050: a7a7 a8bd 4c12 fabc bc98 8ebd d55e 78bc
00000060: c6ed dc3c 122d 043b e6c8 17bd 49e9 9ebd
00000070: 888c eb3c 278c b1bd aee7 333d e985 fa3c
00000080: eae3 69bd 2ae9 743c 351e c9bd f15a 22bd
00000090: 91a6 2fbd 7ba1 073d 31e0 cc3c 2853 5dbd
000000a0: 1ede 81bd 1de0 da3c 6b4d 5dbd d743 94bd
000000b0: 5dcd 06bd be7b a2bd 93d3 80bd b4f4 013a
000000c0: 6d60 84bc 259a d93c eaf9 2c3c 13d1 47bd
000000d0: 4b4e b4bd c416 b8bd 9643 d2bb 12c7 9abd
000000e0: 9788 c63c 558d bebd b4b8 8fbd d8d7 043d
000000f0: 6eaf 17bc 021b 20bd 219c a9bc 0591 823c
00000100: ce67 3bbc 6352 a1bd c69b 81bd a0e2 c23b
00000110: 8cda 0b3d 9d67 19bc a494 9bbd dcb4 bfbd
00000120: d27a aebd 5933 b63c 896d d2bc 09b7 303d
00000130: ba8d 5ebd f81d c93b 07b5 71bd 566a b6bd
00000140: 6f31 02bd 6a79 89ba adb5 47bd 4046 8fbd
00000150: 66a3 1a3d 1195 9dbc 2001 91bd c6dc 2fbc
00000160: 68cc b8bc 4a91 963b b62e ea3c 26ba acbc
00000170: 65cd 21bd 0ce6 ce3b 8cf2 d1bd a304 0abd
00000180: 64a9 8e3c 3f59 99bd 285b a6bd ca83 863c
00000190: c655 67bd c0f2 9bbd d1a3 8ebd 7c76 80bd
000001a0: 6fa1 603c faff d63c 3282 f3bc c4f6 a4bd
000001b0: 5abe fabb ee78 4dbd 657e 6d3b 523d a33c
000001c0: b471 273d ee83 99bd 910a c3bd d910 b7bd
000001d0: 2277 183d 2c68 913c 65ee 713c 91bb f43b
000001e0: 56e5 9bbd 18e5 79bd f36a b2bd cf0f 9ebc
000001f0: cca8 abb9 1a60 adbc 0c07 9cbd 6301 8abd
00000200: ac32 e4bc 8df8 803c 4f1c 933c f246 b0bd
00000210: 782e 84bd fc6c 37bd 0db9 c9bd d0c5 a7bd
00000220: f70a 8abd 920d 193b 8639 b2bc e052 cabc
00000230: de2f dc3c dd0e 4ebd fe4e a5bd fc9c 0b3d
00000240: 9c69 6d3c 6d0b d5bc 6494 353d a12c 9fbd
00000250: 5a35 e63c 33b1 313d 3299 293c 8205 e03c
00000260: 52a3 c5bc b750 12bc e9b7 cfbd 2e67 91bd
00000270: 3c96 4f3c d289 39bd 4647 b6bd 6720 a5bd
00000280: 173d 52bc a701 87bd ce5e c73c a486 72bd
00000290: a5f2 5abd b678 c0bc 5ec1 babc ce08 133d
000002a0: 9d86 273c 757c 83bd 7393 c2bc 937c a8bc
000002b0: 3399 a5bd 850a 6d3c d7b2 22bc 4566 e83c
000002c0: 99a8 d63c dffd 8f3c 539d f0bb 332e d83c
000002d0: 9c63 9cbd 4188 bdbd 7a79 2ebd 4d79 293d
000002e0: 5980 0cbd 3fd3 6dbd 78bc fc3c 3e62 1e3d
000002f0: d561 25bd 59f8 97bc 8019 93bd 0895 37bd
00000300: fb30 1c3c 942b e73c 2a4b 213c 761c e4bd
00000310: 6374 d03c 332f 22bd 3692 02bd 7e52 2abd
00000320: ace0 63bd a4b4 c73b 236b d4bc a942 803b
00000330: e4ce 1a3d 7eb8 e13c a465 59ba 6a9e fabc
00000340: 2fb8 d63c f0ad 733b 388e 3dbc 977f 00bd
00000350: 0ac0 163d e6c3 1d3c 5edc 86bd dca6 80bd
00000360: 5c5c dabd d29e 98bc 50f6 cdbb 58ed 0abd
00000370: 666d b33c 656c 4f3d 4770 95bb a3cc 903c
00000380: 21d3 debd 8fdf c7bd 4e9a b1bc 3870 713c
00000390: 7960 1fbd 68db 833d 42b0 e93c 552c a1bd
000003a0: 40c1 b3bd 90a6 b93c b3f8 7dbd 83ee 2ebd
000003b0: f8de e8bc 1e90 293c d7f8 4b3c d9f7 a7bd
000003c0: 46be d7bd 8805 a7bd a109 763c 706a 1cbd
000003d0: 5274 f2bc 3258 1cbd 449c fa3c fc09 17bd
000003e0: 686c fdbc b17c 46bc 07ad a4bc 4c46 0ebb
000003f0: 2a1a a9bd 063b d4bd b5ac e13a d43b 74bd

encoder.conv.2.bias f4 [64]
-0.055497035 -0.101026125 -0.042469256 -0.0012446935 -0.012810941 0.026107404 -0.069417715 -0.040351737
-0.034957834 -0.0040105027 -0.01659613 -0.017267646 -0.021163885 0.029577814 0.0153590515 0.0133604035
-0.05243611 -0.07429781 -0.030083522 0.00036574493 -0.0525161 -0.090115406 -0.09241268 0.020874804
-0.04291936 0.017156387 -0.0022037085 0.02022772 -0.09417028 0.02642732 -0.02096723 -0.082099974
0.032112803 -0.009573781 -0.006672675 -0.07127039 0.012150411 -0.028406572 0.06703838 -0.018862382
0.04948519 -0.08473666 -0.049032934 -0.053229667 0.016735433 0.04440786 0.019530702 -0.08367795
-0.050830103 0.025141062 -0.05324639 -0.06303556 -0.09932163 0.014971232 -0.041447826 -0.07449444
-0.0070708655 -0.022440538 -0.06097753 -0.090811945 0.027169319 -0.04044192 0.016205812 -0.08778706
00000000: dc50 63bd c9e6 cebd 3ef4 2dbd fc24 a3ba
00000010: fbe4 51bc 32df d53c e02a 8ebd dd47 25bd
00000020: f22f 0fbd 896a 83bb 9bf4 87bc e174 8dbc
00000030: e25f adbc 2c4d f23c 88a4 7b3c 98e5 5a3c
00000040: 3fc7 56bd 7329 98bd b871 f6bc 74c1 bf39
00000050: 1f1b 57bd 6d8e b8bd dc42 bdbd a301 ab3c
00000060: 36cc 2fbd 8d8b 8c3c 186c 10bb 9ab4 a53c
00000070: 59dc c0bd 1b7e d83c 78c3 abbc 0824 a8bd
00000080: b788 033d 59db 1cbc 74a6 dabb 36f6 91bd
00000090: 8412 473c e6b4 e8bc 6b4b 893d 4885 9abc
000000a0: fcb0 4a3d 6a8a adbd c2d6 48bd 5a07 5abd
000000b0: bf18 893c 04e5 353d dafe 9f3c 585f abbd
000000c0: 3a33 50bd a1f4 cd3c e318 5abd ca18 81bd
000000d0: 2469 cbbd e649 753c 32c5 29bd 8a90 98bd
000000e0: b8b2 e7bb 38d5 b7bc 93c3 79bd 9dfb b9bd
000000f0: 3192 de3c 6da6 25bd 0dc2 843c b4c9 b3bd

encoder.conv.4.weight f4 [64, 64, 3]
0.03953498 -0.0148419095 -0.010488551 0.026663613 0.0043817936 0.044957835 0.033916403 0.025965175
0.029643897 0.04211072 -0.02149201 0.03260245 0.03784951 -0.06801291 -0.09296366 -0.025580525
-0.014760088 -0.023992522 0.021935713 0.030558435 -0.05963041 -0.023211464 0.09612493 0.0694944
0.0008811761 0.046805408 0.040985007 0.039355747 0.017259257 -0.077936746 0.00917458 -0.007220478
0.061438475 0.046475243 0.06095605 -0.01956463 -0.06384812 -0.045799732 0.018136263 -0.09179678
-0.09626945 -0.011904056 0.034403495 -0.09221525 0.021073287 -0.012427092 0.009311318 0.01270026
0.006037145 0.098869845 -0.0034526181 -0.0015499751 0.059724696 0.016978525 -0.004660271 -0.009056941
0.0026945025 -0.049567215 -0.039126124 0.031746984 -0.024341539 -0.048101258 -0.04829957 0.023662418
0.03507782 -0.019540267 -0.012055331 0.011722451 -0.053313047 0.021393562 -0.015998472 0.034857698
-0.08390308 -0.10260842 -0.058614843 0.02566171 -0.028205391 -0.10842527 0.037365705 -0.09031665
-0.07058997 -0.02629688 0.042414434 0.03358345 0.057255883 -0.037275378 -0.08908788 0.027945291
-0.027167052 0.04980902 -0.070032984 -0.08948995 -0.07874036 -0.018585062 0.02565017 0.075003505
-0.025692645 -0.09177064 0.014557449 0.0051107993 0.087203756 -0.0074055176 0.08046721 0.046668876
0.07734439 -0.02104025 -0.094694465 -0.031295244 0.042251557 -0.0028897906 -0.028712325 -0.0418935
-0.10755009 -0.02388414 -0.041255526 0.027229624 0.022067979 0.0068839546 0.0141449785 -0.010258032
-0.022209138 -0.040922564 -0.06397645 0.08962274 -0.022820981 0.050955333 -0.060229044 -0.06476128
-0.034053534 -0.053513885 -0.041422796 0.02234829 0.0010377101 -0.021558352 0.026981656 -0.0059755174
-0.08939778 -0.04420503 -0.011555288 0.008858243 -0.0062295487 0.042766742 0.037795074 0.04177548
-0.05325886 -0.075669125 -0.083132476 -0.030709602 0.04490209 -0.0424619 0.021660335 -0.012025699
0.011413373 -0.08090193 -0.03484762 -0.040624928 -0.024578048 -0.07964827 0.04301601 -0.033939317
-0.0043238057 0.03396293 -0.015513783 0.088932514 0.04197441 -0.019390944 -0.038414672 -0.013932007
0.07906949 0.099071726 -0.016606994 -0.07052059 -0.033313874 -0.08655526 -0.025398524 0.10205406
0.09674925 -0.01280485 0.03805411 -0.09142441 0.00910195 -0.024994532 -0.04778077 -0.04710872
-0.02716455 0.01954373 -0.0024490298 -0.06197529 -0.08317281 0.0878894 0.031906 0.093002036
0.003777292 0.033918507 -0.04166782 0.026378661 -0.054407578 0.043685082 0.011255417 -0.09620601
-0.107961684 -0.03134668 -0.047067363 -0.0047209533 -0.07695104 -0.020421864 -0.0908536 0.035293974
-0.08003824 -0.0040696748 -0.09533505 0.018525632 -0.061430395 -0.013395805 -0.06409024 -0.039548643
0.07164759 0.049959503 0.0007111323 0.023944575 -0.010592582 -0.03233389 0.012920509 0.07553489
0.010453955 0.06677278 0.06732004 -0.010969174 0.029582134 -0.093182474 -0.024952427 0.016989667
-0.092246115 -0.09117681 -0.053989675 -0.010803713 -0.06414333 -0.04016763 -0.039820626 -0.028326388
0.011888243 -0.08649419 0.07653476 0.088247254 0.02324474 -0.098627605 0.02086851 -0.0018579885
0.0516558 0.016173735 -0.0009597023 -0.0016491968 0.04087402 -0.061816335 -0.007245712 -0.098257676
00000000: 6eef 213d 7b2b 73bc 2cd8 2bbc a66d da3c
00000010: 2695 8f3b b525 383d edeb 0a3d ebb4 d43c
00000020: c2d7 f23c 4a7c 2c3d 0310 b0bc 268a 053d
00000030: 1608 1b3d 5a4a 8bbd bb63 bebd 408e d1bc
00000040: 4cd4 71bc f78b c4bc 86b2 b33c af55 fa3c
00000050: 043f 74bd f825 bebc 26dd c43d 1453 8e3d
00000060: bafe 663a 07b7 3f3d e5df 273d 7e33 213d
00000070: 4963 8d3c 4d9d 9fbd fa50 163c c299 ecbb
00000080: e9a6 7b3d d35c 3e3d 0dad 793d 0146 a0bc
00000090: cec2 82bd 8098 3bbd 8092 943c f3ff bbbd
000000a0: eb28 c5bd 3b09 43bc aeea 0c3d 59db bcbd
000000b0: e3a1 ac3c 009b 4bbc 808e 183c c014 503c
000000c0: 3ed3 c53b 467c ca3d 5245 62bb 8928 cbba
000000d0: e2a1 743d 8c16 8b3c 30b5 98bb 9063 14bc
000000e0: 4096 303b fe06 4bbd b742 20bd 2009 023d
000000f0: e867 c7bc d305 45bd c5d5 45bd b0d7 c13c
00000100: c3ad 0f3d e912 a0bc b983 45bc 860f 403c
00000110: c85e 5abd 8d41 af3c 3a0f 83bc f2c6 0e3d
00000120: 61d5 abbd 5d24 d2bd 1e16 70bd 8238 d23c
00000130: fe0e e7bc 110e debd c80c 193d f0f7 b8bd
00000140: 7991 90bd 8e6c d7bc c2ba 2d3d cd8e 093d
00000150: 2585 6a3d 11ae 18bd b573 b6bd 86ed e43c
00000160: 708d debc 8b04 4c3d 746d 8fbd 8246 b7bd
00000170: a042 a1bd b33f 98bc 4e20 d23c 709b 993d
00000180: 6279 d2bc 3ff2 bbbd 5e82 6e3c 7e78 a73b
00000190: e297 b23d fca9 f2bb fecb a43d dd27 3f3d
000001a0: bc66 9e3d 9a5c acbc 2cef c1bd 712f 00bd
000001b0: f80f 2d3d a462 3dbb 1c36 ebbc 8598 2bbd
000001c0: 3943 dcbd aca8 c3bc 8efb 28bd a910 df3c
000001d0: e8c7 b43c cc92 e13b 57c0 673c 4e11 28bc
000001e0: f0ef b5bc 6b9e 27bd 1606 83bd 218c b73d
000001f0: 11f3 babc 8ab6 503d bbb2 76bd 90a1 84bd
00000200: b87b 0bbd 6031 5bbd f3aa 29bd c313 b73c
00000210: c603 883a 249b b0bc a208 dd3c 46ce c3bb
00000220: 2f16 b7bd 5510 35bd 6452 3dbc 2a22 113c
00000230: 3e21 ccbb 2e2c 2f3d 02cf 1a3d c41c 2b3d
00000240: f625 5abd 6af8 9abd 5c41 aabd b492 fbbc
00000250: 41eb 373d 87ec 2dbd 0471 b13c 7007 45bc
00000260: 28ff 3a3c e9af a5bd 61bc 0ebd 5366 26bd
00000270: e757 c9bc a21e a3bd 8e31 303d f403 0bbd
00000280: b6ae 8dbb b71c 0b3d 862d 7ebc 4022 b63d
00000290: 5ced 2b3d c2d9 9ebc b458 1dbd 1343 64bc
000002a0: 2fef a13d 1ee6 ca3d 640b 88bc 196d 90bd
000002b0: 2174 08bd e243 b1bd 9110 d0bc b801 d13d
000002c0: 7924 c63d 6fcb 51bc a0de 1b3d b93c bbbd
000002d0: 5820 153c 55c1 ccbc c5b5 43bd 13f5 40bd
000002e0: 3188 debc 2c1a a03c e77f 20bb cdd9 7dbd
000002f0: 8256 aabd 5cff b33d deaf 023d da77 be3d
00000300: 728c 773b 22ee 0a3d e0ab 2abd 1018 d83c
00000310: 7bda 5ebd 21ef 323d a468 383c a807 c5bd
00000320: 041b ddbd 6065 00bd b5c9 40bd 3ab2 9abb
00000330: 8298 9dbd c14b a7bc 7411 babd 6a90 103d
00000340: 17eb a3bd e85a 85bb 063f c3bd 11c3 973c
00000350: 709e 7bbd 147a 5bbc be41 83bd c2fd 21bd
00000360: f9bb 923d 56a2 4c3d 486b 3a3a 6a27 c43c
00000370: 828c 2dbc 8b70 04bd 8bb0 533c 09b2 9a3d
00000380: 1147 2b3c 2bc0 883d 17df 893d 0db8 33bc
00000390: 3b56 f23c 74d6 bebd 0869 ccbc ea2d 8b3c
000003a0: 88eb bcbd e8ba babd 4724 5dbd 0f02 31bc
000003b0: 945d 83bd d086 24bd f41a 23bd be0c e8bc
000003c0: e8c6 423c de23 b1bd 42be 9c3d faba b43d
000003d0: c16b be3c 45fd c9bd 70f4 aa3c c087 f3ba
000003e0: 0895 533d c87e 843c 8894 7bba dd29 d8ba
000003f0: 846b 273d 2033 7dbd 706d edbb 523b c9bd

encoder.conv.4.bias f4 [64]
-0.011809579 0.022064563 -0.0027612848 -0.09669507 0.013856295 0.013225449 -0.07058382 -0.052204415
-0.096914485 -0.047531407 -0.074226655 -0.020287525 -0.07589816 -0.019986741 0.038375873 -0.058828488
-0.0727671 -0.103438005 -0.037436504 -0.066781364 -0.0046588713 0.0039969864 -0.012949808 0.068687886
-0.06747483 0.05556822 -0.0056699924 -0.05234889 -0.08883745 -0.06040903 -0.067307636 -0.06266575
-0.067913756 -0.072286285 0.02198121 -0.053544406 0.035469662 -0.09955984 0.030816691 0.04167078
-0.006147396 -0.056518756 -0.03925751 -0.057504673 -0.054161962 0.011839391 0.018317545 -0.08168038
-0.031813145 -0.058313362 -0.06939287 0.004588895 -0.05301648 0.0046168757 -0.015584147 -0.0011403358
-0.0038012678 -0.0857388 -0.0658685 -0.054643977 -0.03530839 -0.007844803 -0.0005847933 0.031915314
00000000: f77c 41bc bec0 b43c acf6 34bb 1108 c6bd
00000010: 8305 633c 8eaf 583c 408e 90bd 4cd4 55bd
00000020: 1a7b c6bd 4bb0 42bd 2504 98bd 0632 a6bc
00000030: 7f70 9bbd 3cbb a3bc 0530 1d3d 24f6 70bd
00000040: eb06 95bd 4ed7 d3bd 0557 19bd abc4 88bd
00000050: 72a9 98bb 27f9 823b 6e2b 54bc 3cac 8c3d
00000060: 3e30 8abd 809b 633d 58cb b9bb ca6b 56bd
00000070: 69f0 b5bd 766f 77bd 96d8 89bd e756 80bd
00000080: 5e16 8bbd d50a 94bd f011 b43c 6151 5bbd
00000090: a348 113d 08e6 cbbd 4973 fc3c fbae 2a3d
000000a0: 1870 c9bb 3680 67bd 7ccc 20bd 058a 6bbd
000000b0: efd8 5dbd 01fa 413c ad0e 963c 0b48 a7bd
000000c0: 804e 02bd fed9 6ebd d91d 8ebd 715e 963b
000000d0: cf27 59bd 2949 973b a654 7fbc 5277 95ba
000000e0: b11e 79bb d397 afbd 10e6 86bd 5dd2 5fbd
000000f0: 889f 10bd 7d87 00bc d04c 19ba a2b9 023d

encoder.conv.6.weight f4 [64, 64, 3]
0.013174552 -0.07463968 -0.10662466 -0.075148664 -0.024439504 0.018353943 -0.057216503 -0.034157824
-0.01618761 -0.056738086 0.052444562 0.047262445 -0.02852354 -0.021598838 -0.088193655 0.006595375
-0.057123605 -0.03545157 -0.01761301 -0.0968225 0.007676919 0.025283523 -0.103615254 -0.01482176
-0.065243825 -0.02868442 -0.039480954 -0.036057785 -0.005889687 -0.02991632 -0.059276752 -0.0032619548
-0.10700978 -0.002621499 -0.08365418 -0.06906755 -0.020839676 -0.09217934 -0.07238648 -0.033186637
0.021915833 -0.10254683 -0.025904639 0.016727872 0.011582077 -0.07096571 -0.08267207 -0.011571625
0.027804825 -0.03553962 -0.08173075 -0.008554935 -0.06666293 0.029778816 -0.01930241 0.02335222
-0.043954443 -0.022085296 0.015060218 -0.014713043 -0.038751893 -0.051291414 -0.05766023 -0.013399098
0.023139698 -0.09204545 -0.032861512 -0.053830214 0.003438213 -0.024359912 0.08963947 -0.03506224
0.022732295 0.030165564 0.007759228 -0.10995078 0.018489523 -0.052661777 0.017016243 -0.09156545
-0.045893613 -0.0027480833 -0.020663537 -0.01814721 -0.01867582 0.031353146 -0.0022430862 -0.05154345
-0.0703021 0.022846736 -0.04000159 0.049495187 -0.06674425 -0.07437376 0.028415395 -0.061295107
-0.040670168 0.07139839 0.003882654 -0.07119916 0.012893267 0.018830935 0.021815011 -0.019447798
-0.06446357 -0.029823173 -0.1086836 0.018331083 -0.111981794 -0.03712484 -0.047564134 -0.07591598
0.011974141 -0.051529214 -0.077575445 -0.08745116 -0.03565574 0.0180248 0.012711904 -0.09286304
0.051196277 -0.050378308 0.06089574 -0.03202324 0.040028736 -0.024169836 -0.03091517 -0.054544717
-0.06362995 -0.063202076 -0.06453353 -0.04477046 -0.005636297 -0.07676561 0.027743507 0.0325369
0.019841276 -0.01887248 0.063631326 -0.0014147013 -0.01824135 -0.004922652 -0.10474417 0.014994956
-0.031994525 -0.105924875 -0.051480077 0.07084674 0.04198984 -0.015462037 -0.10242481 0.0064751124
-0.018964557 -0.087493174 -0.028746285 -0.10286901 -0.040772226 0.026224222 -0.033612147 0.006018047
0.057266843 -0.06473021 -0.066400565 -0.070343696 0.04731275 0.021841746 -0.045252725 -0.09677205
-0.093024336 -0.021935077 -0.024856407 -0.042439297 -0.10505099 -0.037246577 -0.080994956 -0.0010740812
0.016401945 -0.10737972 -0.07237701 -0.012976681 -0.07517327 0.014571884 0.00238782 -0.08552783
-0.066250734 -0.048484 -0.055111054 0.031228108 -0.019413017 -0.045602422 0.096536584 -0.049114715
0.031047564 -0.07391909 -0.00034815713 0.0128656905 -0.06091537 -0.013787038 -0.0122605525 -0.047155682
-0.09720637 0.0043536937 0.015691884 -0.06720861 0.015571825 0.055677265 0.022640735 0.012048668
0.018216528 -0.08321344 0.04161577 0.03415631 -0.017177526 0.010840362 -0.04871987 0.0036497759
0.059173867 0.03256286 -0.038539175 -0.055439405 0.0028449893 0.011004806 0.061579626 -0.025313878
0.06639959 -0.07729873 -0.016704677 -0.026405912 0.0045504016 -0.046933077 -0.045581933 -0.019315552
-0.070879936 -0.087381765 0.10066596 -0.03177876 -0.026150161 0.084371716 -0.07027406 0.05265462
-0.027873319 0.049603324 -0.055567924 0.04841595 -0.018514957 0.014400333 0.04427959 -0.055973276
-0.05957631 0.035924777 -0.0094466945 0.023603437 0.030793339 0.013564555 -0.06891852 0.0085912645
00000000: 13da 573c b0dc 98bd 085e dabd 8be7 99bd
00000010: 5b35 c8bc 025b 963c da5b 6abd 13e9 0bbd
00000020: e19b 84bc 3266 68bd 1cd0 563d 4496 413d
00000030: 33aa e9bc 0cf0 b0bc e09e b4bd 041e d83b
00000040: 71fa 69bd aa35 11bd 2949 90bc e04a c6bd
00000050: aa8e fb3b 641f cf3c 3c34 d4bd f8d6 72bc
00000060: 8e9e 85bd 97fb eabc c8b6 21bd 54b1 13bd
00000070: 47fe c0bb 1213 f5bc 2ecc 72bd 85c6 55bb
00000080: f227 dbbd 74cd 2bbb e252 abbd 4a73 8dbd
00000090: f8b7 aabc 86c8 bcbd 5d3f 94bd b6ee 07bd
000000a0: d588 b33c 1304 d2bd f735 d4bc e408 893c
000000b0: c0c2 3d3c 7856 91bd f94f a9bd ea96 3dbc
000000c0: f2c6 e33c fe91 11bd 7462 a7bd 002a 0cbc
000000d0: 9386 88bd b4f2 f33c 1620 9ebc 284d bf3c
000000e0: 9309 34bd 39ec b4bc 22bf 763c fa0e 71bc
000000f0: 4eba 1ebd f216 52bd 222d 6cbd e487 5bbc
00000100: 778f bd3c 5382 bcbd cb99 06bd 127d 5cbd
00000110: a453 613b 708e c7bc e694 b73d 6c9d 0fbd
00000120: 1439 ba3c c61d f73c 1f41 fe3b e02d e1bd
00000130: 5777 973c e0b3 57bd a665 8b3c ab86 bbbd
00000140: f1fa 3bbd 3019 34bb 9446 a9bc 75a9 94bc
00000150: 09fe 98bc 286c 003d be00 13bb 3a1f 53bd
00000160: 8cfa 8fbd 1429 bb3c b5d8 23bd 77bb 4a3d
00000170: 36b1 88bd 4551 98bd 67c7 e83c 9410 7bbd
00000180: c395 26bd 5239 923d 2074 7e3b ddd0 91bd
00000190: 483e 533c 5543 9a3c 65b5 b23c fd50 9fbc
000001a0: 7a05 84bd ba4f f4bc 8295 debd 112b 963c
000001b0: b656 e5bd 3710 18bd 9cd2 42bd d679 9bbd
000001c0: 302f 443c 4c10 53bd e0df 9ebd 9819 b3bd
000001d0: c10b 12bd bfa8 933c 9745 503c fa2e bebd
000001e0: 30b3 513d 7c59 4ebd d06d 793d cd2a 03bd
000001f0: 2cf5 233d d2ff c5bc d041 fdbc 486a 5fbd
00000200: 6b50 82bd 1770 81bd 282a 84bd 3b61 37bd
00000210: b0b0 b8bb 4a37 9dbd 5a46 e33c 6a45 053d
00000220: 2c8a a23c 769a 9abc 2451 823d 806d b9ba
00000230: e26e 95bc 334e a1bb 1d84 d6bd 67ad 753c
00000240: b10c 03bd 24ef d8bd c6dc 52bd 1818 913d
00000250: 8afd 2b3d 7c54 7dbc 19c4 d1bd 2e2d d43b
00000260: 8f5b 9bbc 9f2f b3bd 547d ebbc fdac d2bd
00000270: c700 27bd 2ed4 d63c e4ac 09bd 0a33 c53b
00000280: a390 6a3d 4691 84bd 05fd 87bd 5b10 90bd
00000290: 04cb 413d 76ed b23c ec5a 39bd 6d30 c6bd
000002a0: 8b83 bebd 31b1 b3bc aa9f cbbc d4d4 2dbd
000002b0: f924 d7bd de8f 18bd afe0 a5bd 2fc8 8cba
000002c0: 5f5d 863c e6e9 dbbd 663a 94bd 259c 54bc
000002d0: 72f4 99bd e9be 6e3c f97c 1c3b 3729 afbd
000002e0: 77ae 87bd 2997 46bd 21bc 61bd 17d2 ff3c
000002f0: 0c08 9fbc 9bc9 3abd f9b4 c53d 832c 49bd
00000300: 7657 fe3c e462 97bd dc88 b6b9 9eca 523c
00000310: 6582 79bd 07e3 61bc 7ce0 48bc 5126 41bd
00000320: 2214 c7bd 6ea9 8e3b 448c 803c aba4 89bd
00000330: f820 7f3c d80d 643d 1079 b93c c767 453c
00000340: d43a 953c cf6b aabd 4c75 2a3d 7de7 0b3d
00000350: e2b7 8cbc c69b 313c 7d8e 47bd 1431 6f3b
00000360: 4c60 723d a260 053d 41db 1dbd 6e14 63bd
00000370: 0073 3a3b 804d 343c eb3a 7c3d 0d5f cfbc
00000380: 82fc 873d cc4e 9ebd 3fd8 88bc 3651 d8bc
00000390: 891b 953b e63c 40bd 1fb4 3abd a63b 9ebc
000003a0: 8029 91bd 36f5 b2bd f429 ce3d 722a 02bd
000003b0: dd38 d6bc 14cb ac3d d9eb 8fbd 5fac 573d
000003c0: 9656 e4bc db2c 4b3d 319b 63bd ce4f 463d
000003d0: aeac 97bc 60ef 6b3c 845e 353d 3c44 65bd
000003e0: 4a06 74bd dc25 133d 4fc6 1abc ff5b c13c
000003f0: 5042 fc3c de3d 5e3c 2725 8dbd 60c2 0c3c

encoder.conv.6.bias f4 [64]
-0.037370928 -0.07739997 -0.014026851 -0.021470003 0.06400213 0.015474419 0.029785264 -0.035100605
-0.030010555 -0.042382717 0.040912766 -0.0008773665 -0.10199539 -0.10285272 -0.032322746 0.040549017
-0.07799874 0.04403295 0.038853936 -0.04683484 -0.1107 0.016703758 -0.098162875 0.030528406
-0.025481086 -0.03534645 0.0007977312 -0.09368057 -0.044044316 0.005767878 -0.08599741 -0.017897945
-0.03954695 -0.100101285 0.09232645 0.0049328688 -0.046988297 -0.01970992 -0.031681754 0.04457628
0.07438223 -0.050719522 -0.039882645 -0.019544499 -0.012432902 -0.06127004 -0.07531373 0.0013285221
-0.051702753 -0.029864509 0.02221754 -0.079826064 0.0019569339 -0.0680953 -0.05489481 -0.027041184
-0.030128531 0.045298945 -0.04132065 -0.043190934 0.033659603 -0.0077601513 -0.05658326 0.03526813
00000000: 4212 19bd e083 9ebd e1d0 65bc dce1 afbc
00000010: 8c13 833d 6b88 7d3c 3a00 f43c a7c5 0fbd
00000020: b2d8 f5bc 8099 2dbd 2594 273d 12ff 65ba
00000030: f6e2 d0bd 72a4 d2bd db64 04bd ba16 263d
00000040: cebd 9fbd e55b 343d 4e25 1f3d e4d5 3fbd
00000050: aeb6 e2bd 52d6 883c 9e09 c9bd b516 fa3c
00000060: b6bd d0bc 70c7 10bd d61e 513a 99db bfbd
00000070: d067 34bd 7800 bd3b 691f b0bd b69e 92bc
00000080: fcfb 21bd e701 cdbd a615 bd3d e7a3 a13b
00000090: cd76 40bd b376 a1bc bac4 01bd 9e95 363d
000000a0: b655 983d 46bf 4fbd fc5b 23bd c91b a0bc
000000b0: 5fb3 4bbc 4bf6 7abd 163e 9abd ce21 ae3a
000000c0: 44c6 53bd 6aa6 f4bc 8f01 b63c d97b a3bd
000000d0: e73f 003b 8c75 8bbd 61d9 60bd 7985 ddbc
000000e0: 1cd0 f6bc 638b 393d d83f 29bd fae8 30bd
000000f0: a7de 093d de48 febb d9c3 67bd 5175 103d

encoder.conv.8.weight f4 [64, 64, 3]
-0.0016152334 0.014310834 -0.01860693 -0.032349087 0.039151683 -0.05934146 0.01247068 -0.063465424
0.011401385 -0.03424194 -0.006041558 0.054890137 0.00602661 0.008401636 0.0062169735 0.01783071
0.056707818 0.041642524 0.049147137 -0.056441456 0.02401103 -0.079966 0.013857292 -0.03919261
-0.09162404 -0.103137374 -0.10815372 0.005044097 0.013347068 -0.04756128 0.03398267 -0.052646924
0.02761212 -0.022301871 -0.027484441 0.03024755 -0.101176314 -0.063394345 -0.08648998 -0.04837022
0.10031448 -0.04269869 -0.036802575 0.0046604658 -0.05879075 -0.025347918 0.05419832 -0.01462434
-0.079419 -0.0451012 0.005935762 -0.029216198 0.012778972 -0.017464459 0.040311653 0.018750537
-0.07510802 -0.056670774 0.014976151 -0.018349089 -0.010663658 -0.079707325 -0.009872668 -0.005920938
0.0007270067 -0.062937304 -0.06869289 0.060472056 -0.028930204 0.035534278 -0.050543174 -0.07432169
0.09075828 0.0008257729 0.024935462 -0.008274259 -0.02608314 -0.08595667 -0.075955234 0.007848995
0.011007127 -0.033973955 0.0726911 0.0073933476 0.0043644523 -0.07881312 -0.027106069 0.01488672
-0.010191081 0.01551759 0.030295487 -0.07251365 -0.0332555 0.06549155 -0.023888214 0.10177737
-0.022106078 -0.05458644 0.018331638 0.03666626 -0.026809199 -0.026520243 -0.083147265 -0.024322668
-0.003801636 0.028806098 0.077724434 -0.02139303 -0.044898853 -0.03364772 -0.0052690953 -0.09423965
-0.07682029 0.0064603253 -0.06298233 0.029474363 -0.02901903 -0.052105032 -0.052916728 -0.07441675
-0.0588928 -0.07945011 0.035733525 -0.012635265 -0.005801488 -0.05520895 -0.07552506 0.010199519
-0.003183797 0.0055066957 0.03534294 0.022646466 -0.042339753 -0.04442567 0.05216993 0.012623656
-0.010568418 0.043472417 -0.07079039 -0.046079367 -0.035060544 -0.014565767 -0.020852258 -0.054991577
-0.04510843 -0.054733973 -0.055518243 -0.03578314 -0.020192966 0.00491371 -0.039494906 0.011800534
-0.030222895 -0.06605902 -0.10116409 -0.07045866 0.020562172 -0.08126679 -0.06362171 -0.066904254
-0.039161265 0.01480557 -0.047215737 0.011020039 0.040972926 -0.05086083 0.054960154 -0.008092169
-0.02213874 0.039206393 -0.017380334 -0.04684212 0.042020444 0.003525525 -0.0043787993 -0.001969491
0.008053368 -0.021933766 -0.004906988 0.025813691 0.010681605 -0.09428531 -0.044043325 -0.0103094615
-0.030911818 0.044188403 -0.02292773 0.045983955 -0.06759973 -0.025686895 -0.07972759 -0.01203834
-0.0028204694 -0.00062107295 0.0073624104 0.006146715 -0.030345835 0.041381914 -0.099711694 0.003520121
0.0062865065 -0.04695401 0.04592447 -0.044179853 0.05275481 -0.0060858782 -0.050695166 -0.050990436
-0.0048455046 -0.05625676 0.042074796 0.025556281 0.04346351 0.03891626 -0.05736473 0.05566878
0.029342175 -0.00057508796 0.0051685274 -0.024252664 0.030283451 0.0602846 -0.011328578 0.008636542
-0.030005138 -0.052169044 -0.019017134 0.025061265 0.0018493792 0.061931774 -0.0057945466 -0.045820527
0.025662698 -0.00074275583 -0.029236123 -0.050700333 -0.011763923 0.013920727 -0.02787238 0.08899296
0.03465852 -0.01890365 -0.043395616 -0.017022211 0.0394951 0.007622536 -0.0698555 0.040462486
0.008149427 0.06034732 -0.007456988 -0.04674394 0.042818233 -0.057580397 -0.02737799 0.076023936
00000000: 3db6 d3ba fd77 6a3c 8f6d 98bc 7a80 04bd
00000010: 845d 203d 0810 73bd d351 4c3c 29fa 81bd
00000020: e0cc 3a3c 4741 0cbd 43f8 c5bb 7bd4 603d
00000030: de7a c53b 04a7 093c c1b7 cb3b b611 923c
00000040: 7546 683d 5a91 2a3d 824e 493d 282f 67bd
00000050: c8b2 c43c 37c5 a3bd b209 633c 6e88 20bd
00000060: 62a5 bbbd b039 d3bd b37f ddbd f448 a53b
00000070: a9ad 5a3c 9ecf 42bd 6a31 0b3d 4da4 57bd
00000080: d032 e23c 6ab2 b6bc 0d27 e1bc b6c9 f73c
00000090: 8735 cfbd e5d4 81bd a921 b1bd da1f 46bd
000000a0: ae71 cd3d d2e4 2ebd 4cbe 16bd d2b6 983b
000000b0: 92ce 70bd 70a6 cfbc 0fff 5d3d ee9a 6fbc
000000c0: 6ea6 a2bd 09bc 38bd c880 c23b cf56 efbc
000000d0: e55e 513c a011 8fbc d51d 253d ba9a 993c
000000e0: 3cd2 99bd 9d1f 68bd 885e 753c d450 96bc
000000f0: a0b6 2ebc 983d a3bd f9c0 21bc 6e04 c2bb
00000100: 9894 3e3a 46e5 80bd dcae 8cbd 8cb1 773d
00000110: 09ff ecbc 648c 113d 5c06 4fbd f835 98bd
00000120: 7adf b93d ae78 583a 7445 cc3c c290 07bc
00000130: 4fac d5bc 0d0a b0bd 6b8e 9bbd 1299 003c
00000140: 3d57 343c 4628 0bbd 12df 943d e543 f23b
00000150: ae03 8f3b c668 a1bd 8c0d debc 6ee7 733c
00000160: 7ef8 26bc 7d3d 7e3c 3e2e f83c 0982 94bd
00000170: eb36 08bd 6f20 863d 37b1 c3bc a770 d03d
00000180: ce17 b5bc 0896 5fbd 3b2c 963c 5c2f 163d
00000190: f79e dbbc fb40 d9bc 1d49 aabd 5540 c7bc
000001a0: de24 79bb c4fa eb3c fd2d 9f3d 7040 afbc
000001b0: dce7 37bd 31d2 09bd 60a8 acbb b800 c1bd
000001c0: f553 9dbd 23b1 d33b e1fc 80bd 3874 f13c
000001d0: 51b9 edbc 166c 55bd 36bf 58bd cf67 98bd
000001e0: 9439 71bd bdb6 a2bd 515d 123d 2404 4fbc
000001f0: 691a bebb c822 62bd e2ac 9abd e21b 273c
00000200: 40a7 50bb 8371 b43b c2c3 103d 1585 b93c
00000210: 736c 2dbd b1f7 35bd 23b0 553d 73d3 4e3c
00000220: 2827 2dbc 2210 323d 8dfa 90bd b8bd 3cbd
00000230: a59b 0fbd 41a5 6ebc 5bd2 aabc d93e 61bd
00000240: 9ec3 38bd bb30 60bd 1967 63bd 5891 12bd
00000250: b86b a5bc 3003 a13b 69c5 21bd 0757 413c
00000260: 0196 f7bc f449 87bd 1e2f cfbd a14c 90bd
00000270: 0072 a83c 346f a6bd 194c 82bd 1905 89bd
00000280: 9067 20bd 1093 723c 4a65 41bd 658d 343c
00000290: 3ad3 273d 7253 50bd e61d 613d 0495 04bc
000002a0: 4e5c b5bc e296 203d 3461 8ebc 86dd 3fbd
000002b0: a11d 2c3d 7f0c 673b 087c 8fbb 9312 01bb
000002c0: 46f2 033c 71ae b3bc ccca a0bb 3c77 d33c
000002d0: e601 2f3c a818 c1bd c666 34bd 04e9 28bc
000002e0: c83a fdbc e6fe 343d efd2 bbbc ac59 3c3d
000002f0: ba71 8abd 536d d2bc 3848 a3bd 753c 45bc
00000300: a0d7 38bb 80cf 22ba 6040 f13b 626a c93b
00000310: d497 f8bc 1580 293d a535 ccbd d5b1 663b
00000320: 0aff cd3b d952 40bd 4c1b 3c3d eff5 34bd
00000330: 6d15 583d 0c6c c7bb bca5 4fbd 59db 50bd
00000340: 0ac7 9ebb 7d6d 66bd 9f56 2c3d 685b d13c
00000350: cb06 323d a866 1f3d 47f7 6abd f204 643d
00000360: 005f f03c 80c1 16ba c05c a93b 86ad c6bc
00000370: 0015 f83c fcec 763d 809b 39bc 4880 0d3c
00000380: 56cd f5bc 35af 55bd d2c9 9bbc 484d cd3c
00000390: de66 f23a 2cac 7d3d 2ee0 bdbb 4eae 3bbd
000003a0: 943a d23c 80b5 42ba 9880 efbc 27ab 4fbd
000003b0: 78bd 40bc c313 643c 9e54 e4bc f141 b63d
000003c0: 18f6 0d3d d4db 9abc 9abf 31bd 2a72 8bbc
000003d0: 9dc5 213d 77c6 f93b 6610 8fbd febb 253d
000003e0: 2d85 053c c02e 773d c059 f4bb 9376 3fbd
000003f0: 2c62 2f3d 6cd9 6bbd ce47 e0bc 70b2 9b3d

encoder.conv.8.bias f4 [64]
0.021590604 -0.079232745 -0.00054479134 -0.045074962 0.012279406 0.05038721 -0.029171444 -0.054305937
0.001928739 0.0064559057 -0.00041159452 -0.011729894 0.007589761 -0.032111283 -0.009456208 0.024607493
-0.032658275 -0.016163584 -0.025872339 -0.03794026 -0.038340937 0.008023454 0.034740184 -0.030546509
-0.008372175 0.0029222239 0.02861508 -0.037717465 -0.03613814 -0.030899521 0.01730198 0.03232738
-0.048831433 -0.08585408 0.0023129028 -0.004599647 -0.033628076 0.045565683 -0.016644549 -0.05543151
-0.0098464675 -0.02285985 -0.001736471 0.00043236674 -0.106421605 0.040985987 -0.022508686 0.026701232
-0.023871992 -0.052871585 -0.0221855 0.018212913 -0.027596336 -0.04092378 -0.010682028 0.046624724
0.008670599 0.0154552655 -0.03057443 -0.055550132 -0.057509076 -0.047650415 -0.03689846 -0.020885758
00000000: c7de b03c c744 a2bd 54d0 0eba 86a0 38bd
00000010: 902f 493c d262 4e3d f4f8 eebc e76f 5ebd
00000020: becd fc3a 108c d33b 48cb d7b9 be2e 40bc
00000030: 88b3 f83b 1f87 03bd 36ee 1abc a795 c93c
00000040: afc4 05bd 7e69 84bc 3af2 d3bc 3f67 1bbd
00000050: 630b 1dbd ce74 033c b94b 0e3d ac3c fabc
00000060: 722b 09bc c882 3f3b 2c6a ea3c a17d 1abd
00000070: 9605 14bd fe20 fdbc e2bc 8d3c b769 043d
00000080: 7803 48bd 44d4 afbd 1294 173b a3b8 96bb
00000090: 98bd 09bd 15a3 3a3d 265a 88bc 270c 63bd
000000a0: 1453 21bc 9544 bbbc 4c9a e3ba 48af e239
000000b0: 92f3 d9bd ece0 273d 2364 b8bc 8bbc da3c
000000c0: 328f c3bc e08f 58bd 5ebe b5bc 3f33 953c
000000d0: b611 e2bc b29f 27bd ac03 2fbc 91f9 3e3d
000000e0: 210f 0e3c 1538 7d3c 3a77 fabc 8988 63bd
000000f0: a38e 6bbd 152d 43bd d722 17bd 9c18 abbc

encoder.conv.10.weight f4 [64, 64, 3]
0.007254297 -0.035832454 -0.08205053 -0.042865265 0.032325827 0.0133685805 -0.056157675 -0.06467923
-0.03257962 -0.041145854 0.021301605 0.06806773 -0.0020663082 -0.109612375 -0.007398742 -0.04611131
-0.06684798 0.012281311 0.043436617 -0.06884754 0.013848655 0.033616163 0.038793705 0.008782521
0.026213275 -0.050405737 -0.04009253 -0.06798478 0.003953293 -0.053049758 -0.0026593865 0.0077197696
-0.050588228 -0.10581333 0.019364307 -0.07218357 -0.084192626 -0.092564285 0.0013435963 0.023741143
-0.08142467 0.012562291 -0.053385958 -0.030234814 -0.10715534 -0.03957475 -0.0012466477 -0.039108526
-0.10096822 -0.08014328 -0.021732159 0.014662447 -0.08310226 0.004701635 0.06981862 0.021743698
0.041411635 0.025785854 0.02632872 -0.08468087 -0.010959455 -0.10908735 -0.06073527 0.009839395
0.025587153 0.013415726 -0.0915485 -0.030547196 -0.057780918 -0.034442596 -0.095466785 -0.09204683
-0.08363813 -0.044526882 -0.06226811 -0.05902495 -0.03735983 -0.072100334 -0.009642301 -0.046631884
-0.09248922 -0.09038245 -0.053802352 -0.070143156 -0.030235982 -0.0413597 -0.06793128 -0.07242306
0.01841027 -0.076867454 -0.07714161 0.0013583249 -0.06434529 -0.09939985 -0.09504691 0.008023318
0.024369482 -0.020844366 -0.09171585 -0.10333325 0.034521855 -0.016957022 -0.07993817 -0.011233965
-0.074969076 -0.048479997 -0.044991918 0.023150675 -0.053977966 -0.026816953 -0.08237117 -0.07130996
-0.100373164 -0.050915226 0.028857917 0.030642256 -0.009835105 -0.037968483 -0.01890378 -0.019921767
-0.08994083 -0.034604736 -0.0034133506 -0.026229775 -0.06776204 -0.050932657 -0.11247671 -0.105173744
-0.016413068 -0.079695605 -0.0030869187 0.0056446847 0.00033652945 -0.027236208 0.0010632444 0.011049826
-0.05178322 -0.06438664 -0.10743848 -0.073973194 0.024288373 -0.058773078 0.011000417 -0.071399294
-0.06303481 -0.09998897 -0.012425522 0.0044474327 -0.047727708 -0.03595508 0.04182791 0.018431656
-0.0053790584 0.032481633 0.015371663 -0.09362132 0.025318729 0.029535642 -0.036387023 -0.10523872
-0.04125456 0.026018307 -0.070486486 -0.050806567 -0.019710941 -0.0022622645 0.004603598 -0.027887426
-0.0110967085 -0.10200301 -0.03289778 0.0280695 -0.090570286 -0.07142181 -0.0078101624 -0.08754306
-0.06701356 -0.05516051 -0.003025276 -0.07665129 0.0024359524 -0.01222422 0.028343976 -0.036296453
-0.09812449 0.0054663015 -0.041336756 0.029711848 -0.07050937 -0.070976354 -0.025855618 -0.07706246
0.08143568 -0.003641178 0.07395015 0.07204426 -0.008269601 0.071557775 0.09427993 -0.023764515
0.06870703 -0.051702544 -0.047449812 -0.021832347 0.030789988 -0.0536644 -0.023611013 -0.0157316
0.03802889 0.015220744 -0.010098338 -0.04575284 0.023113482 0.0038769394 0.032374345 0.053885683
0.0016380907 0.022456927 0.022673683 -0.021812946 0.09650862 0.09403184 0.038561236 0.02774658
0.02981851 0.08904657 -0.008599006 0.091317005 0.009876287 -0.013284027 -0.020616865 0.044118535
0.058300372 0.016481107 0.08741295 0.02380849 0.08566989 0.102414146 -0.026406469 0.02969139
0.03986285 0.03451882 0.040983412 0.04658427 -0.06997468 -0.010532953 0.039277624 -0.0072847796
7.006223e-05 -0.06111627 -0.010910916 0.037223354 -0.007947044 0.096389174 0.09084062 0.012450156
00000000: 74b5 ed3b 0dc5 12bd 1c0a a8bd 7d93 2fbd
00000010: 1668 043d e407 5b3c 9705 66bd 8b76 84bd
00000020: 3572 05bd 8e88 28bd b480 ae3c 1867 8b3d
00000030: e66a 07bb 747c e0bd 2571 f2bb 37df 3cbd
00000040: 98e7 88bd 8d37 493c 98ea 313d f0ff 8cbd
00000050: 78e5 623c 1ab1 093d 26e6 1e3d 90e4 0f3c
00000060: 39bd d63c 3f76 4ebd 1138 24bd 9b3b 8bbd
00000070: a08a 813b b44a 59bd 1a49 2ebb 1ff6 fc3b
00000080: 9a35 4fbd a9b4 d8bd e5a1 9e3c fbd4 93bd
00000090: 2f6d acbd 5892 bdbd 9c1b b03a c97c c23c
000000a0: fac1 a6bd 11d2 4d3c 3cab 5abd 00af f7bc
000000b0: 4274 dbbd 2219 22bd 8e66 a3ba 4330 20bd
000000c0: 6dc8 cebd 2922 a4bd a407 b2bc c33a 703c
000000d0: 8531 aabd 2c10 9a3b 11fd 8e3d d71f b23c
000000e0: 3f9f 293d db3c d33c 54af d73c 2a6d adbd
000000f0: 498f 33bc 3069 dfbd 8cc5 78bd 6a35 213c
00000100: 269c d13c a2cd 5b3c c87d bbbd 1d3e fabc
00000110: afab 6cbd ae13 0dbd 1784 c3bd 0c83 bcbd
00000120: 784a abbd d261 36bd d90c 7fbd 25c4 71bd
00000130: 9f06 19bd 57a9 93bd befa 1dbc 1301 3fbd
00000140: fd6a bdbd 6f1a b9bd db5f 5cbd 37a7 8fbd
00000150: 73b1 f7bc ca68 29bd 8e1f 8bbd 8b52 94bd
00000160: 22d1 963c af6c 9dbd 6cfc 9dbd d209 b23a
00000170: 77c7 83bd 2692 cbbd f4a7 c2bd 3c74 033c
00000180: 82a2 c73c cec1 aabc 85d5 bbbd 62a0 d3bd
00000190: ca66 0d3d 74e9 8abc a0b6 a3bd aa0e 38bc
000001a0: 6389 99bd f692 46bd 7249 38bd 7ca6 bd3c
000001b0: 0018 5dbd 3aaf dbbc 37b2 a8bd f50a 92bd
000001c0: 7290 cdbd 7c8c 50bd 7067 ec3c 7805 fb3c
000001d0: 6c23 21bc d784 1bbd 1adc 9abc f932 a3bc
000001e0: e632 b8bd b2bd 0dbd 85b2 5fbb d3df d6bc
000001f0: d3c6 8abd c39e 50bd 305a e6bd 5565 d7bd
00000200: b374 86bc 7337 a3bd e74d 4abb 0cf7 b83b
00000210: 3870 b039 781e dfbc 905c 8b3a 540a 353c
00000220: a41a 54bd 25dd 83bd b508 dcbd 427f 97bd
00000230: 69f8 c63c 0abc 70bd 183b 343c cb39 92bd
00000240: 6518 81bd 04c7 ccbd 6b94 4bbc c5bb 913b
00000250: 217e 43bd a245 13bd be53 2b3d fcfd 963c
00000260: d042 b0bb 760b 053d 6dd9 7b3c 89bc bfbd
00000270: 3969 cf3c bbf4 f13c 8f0a 15bd 6687 d7bd
00000280: 8bfa 28bd 5824 d53c 385b 90bd 8c1a 50bd
00000290: d778 a1bc 8042 14bb c7d9 963b 2c74 e4bc
000002a0: f8ce 35bc f4e6 d0bd d3bf 06bd 02f2 e53c
000002b0: ea7c b9bd 9945 92bd 64ec ffbb c749 b3bd
000002c0: 683e 89bd fdef 61bd b543 46bb 5afb 9cbd
000002d0: 80a4 1f3b 1848 48bc a031 e83c 97ab 14bd
000002e0: 7ef5 c8bd a91e b33b bb50 29bd 4366 f33c
000002f0: 3767 90bd 0d5c 91bd 29cf d3bc ecd2 9dbd
00000300: c0c7 a63d d4a0 6ebb 2d73 973d f18b 933d
00000310: 387d 07bc e28c 923d d615 c13d cdad c2bc
00000320: 45b6 8c3d 0cc6 53bd bc5a 42bd c0d9 b2bc
00000330: 493b fc3c 34cf 5bbd e26b c1bc 8edf 80bc
00000340: 2ec4 1b3d 6d60 793c 8073 25bc 5467 3bbd
00000350: 7c58 bd3c 4014 7e3b f69a 043d 3cb7 5c3d
00000360: 34b5 d63a 97f7 b73c 29be b93c 10b1 b2bc
00000370: 50a6 c53d c493 c03d 63f2 1d3d cc4c e33c
00000380: f345 f43c 0c5e b63d d8e2 0cbc 6904 bb3d
00000390: 26d0 213c 3fa5 59bc b3e4 a8bc a3b5 343d
000003a0: 5fcc 6e3d 6303 873c 9005 b33d 060a c33c
000003b0: b273 af3d 82be d13d 6152 d8bc 5c3b f33c
000003c0: 3a47 233d 9b63 0d3d 39de 273d 26cf 3e3d
000003d0: e34e 8fbd 6892 2cbc 93e1 203d 29b5 eebb
000003e0: 60ee 9238 0e55 7abd b3c3 32bc 8477 183d
000003f0: 5234 02bc b067 c53d a60a ba3d bdfb 4b3c

encoder.conv.10.bias f4 [64]
-0.0005131359 -0.008689797 0.0045567644 -0.014672357 0.011304504 0.021333849 0.0077050845 -0.0072138663
0.018924065 0.02436576 0.010485861 0.002528866 -0.0075443257 0.019802067 -0.037246834 -0.020347608
-0.03703638 0.013942217 0.031963766 -0.018182643 0.008411818 0.03873347 -0.02459339 -0.005092711
0.020554055 0.019597718 -0.0270111 0.038991984 -0.034084443 -0.012637118 -0.017521782 -0.022379536
0.031147042 -0.018531589 -0.023627844 0.014959182 0.06740264 -0.024540845 -0.011453945 0.005333342
0.03923001 0.0425419 0.033352837 -0.024394948 0.013290947 0.0033009811 0.003496266 0.019251272
0.011118568 0.00963724 0.029275218 -0.005719733 -0.016411683 0.025618557 0.019161697 0.0087733045
-0.012665402 0.018662278 -0.024171341 0.034284938 -0.008621851 0.009782514 -0.012992745 0.03590403
00000000: f883 06ba a65f 0ebc e950 953b 5364 70bc
00000010: 8736 393c 53c4 ae3c ef7a fc3b 4c62 ecbb
00000020: a406 9b3c b49a c73c e4cc 2b3c 55bb 253b
00000030: 6436 f7bb f237 a23c 2390 18bd 07b0 a6bc
00000040: 76b3 17bd e66d 643c 70ec 023d c4f3 94bc
00000050: b9d1 093c fda6 1e3d 1478 c9bc c2e0 a6bb
00000060: fa60 a83c 658b a03c 6246 ddbc 0fb6 1f3d
00000070: 219c 0bbd ea0b 4fbc d789 8fbc 4a55 b7bc
00000080: 1528 ff3c 8fcf 97bc 2e8f c1bc 5b17 753c
00000090: 650a 8a3d e209 c9bc 54a9 3bbc 51c3 ae3b
000000a0: a6af 203d 6a40 2e3d fc9c 083d ead7 c7bc
000000b0: 46c2 593c 4655 583b 9c21 653b d8b4 9d3c
000000c0: a72a 363c 84e5 1d3c 95d2 ef3c 996c bbbb
000000d0: cb71 86bc 02de d13c fef8 9c3c e8bd 0f3c
000000e0: 8c82 4fbc a2e1 983c fa02 c6bc 5d6e 0c3d
000000f0: aa42 0dbc d646 203c 86df 54bc 1b10 133d
